…
  X = Dense(shape, init = 'glorot_normal', activation = 'relu', kernel_regularizer = l2(l2_reg))(X)
deep_dense_FC_n_run_redo_load.py:233: UserWarning: Update your `Dense` call to the Keras 2 API: `Dense(1, activation="sigmoid", kernel_initializer="glorot_normal")`
  out = Dense(1, init = 'glorot_normal', activation = 'sigmoid')(X)
68579]
 [… __________________________________________________________________________________________________
Layer (type)                    Output Shape         Param #     Connected to                     
==================================================================================================
input_1 (InputLayer)            (None, 800)          0                                            
__________________________________________________________________________________________________
dense_1 (Dense)                 (None, 128)          102528      input_1[0][0]                    
__________________________________________________________________________________________________
batch_normalization_1 (BatchNor (None, 128)          512         dense_1[0][0]                    
__________________________________________________________________________________________________
concatenate_1 (Concatenate)     (None, 928)          0           input_1[0][0]                    
                                                                 batch_normalization_1[0][0]      
__________________________________________________________________________________________________
dropout_1 (Dropout)             (None, 928)          0           concatenate_1[0][0]              
__________________________________________________________________________________________________
dense_2 (Dense)                 (None, 128)          118912      dropout_1[0][0]                  
__________________________________________________________________________________________________
batch_normalization_2 (BatchNor (None, 128)          512         dense_2[0][0]                    
__________________________________________________________________________________________________
concatenate_2 (Concatenate)     (None, 1056)         0           batch_normalization_2[0][0]      
                                                                 dropout_1[0][0]                  
__________________________________________________________________________________________________
dropout_2 (Dropout)             (None, 1056)         0           concatenate_2[0][0]              
__________________________________________________________________________________________________
dense_3 (Dense)                 (None, 128)          135296      dropout_2[0][0]                  
__________________________________________________________________________________________________
batch_normalization_3 (BatchNor (None, 128)          512         dense_3[0][0]                    
__________________________________________________________________________________________________
concatenate_3 (Concatenate)     (None, 1184)         0           batch_normalization_3[0][0]      
                                                                 dropout_2[0][0]                  
__________________________________________________________________________________________________
dropout_3 (Dropout)             (None, 1184)         0           concatenate_3[0][0]              
__________________________________________________________________________________________________
dense_4 (Dense)                 (None, 128)          151680      dropout_3[0][0]                  
__________________________________________________________________________________________________
batch_normalization_4 (BatchNor (None, 128)          512         dense_4[0][0]                    
__________________________________________________________________________________________________
concatenate_4 (Concatenate)     (None, 1312)         0           batch_normalization_4[0][0]      
                                                                 dropout_3[0][0]                  
__________________________________________________________________________________________________
dropout_4 (Dropout)             (None, 1312)         0           concatenate_4[0][0]              
__________________________________________________________________________________________________
dense_5 (Dense)                 (None, 128)          168064      dropout_4[0][0]                  
__________________________________________________________________________________________________
batch_normalization_5 (BatchNor (None, 128)          512         dense_5[0][0]                    
__________________________________________________________________________________________________
concatenate_5 (Concatenate)     (None, 1440)         0           batch_normalization_5[0][0]      
                                                                 dropout_4[0][0]                  
__________________________________________________________________________________________________
dropout_5 (Dropout)             (None, 1440)         0           concatenate_5[0][0]              
__________________________________________________________________________________________________
dense_6 (Dense)                 (None, 128)          184448      dropout_5[0][0]                  
__________________________________________________________________________________________________
batch_normalization_6 (BatchNor (None, 128)          512         dense_6[0][0]                    
__________________________________________________________________________________________________
concatenate_6 (Concatenate)     (None, 1568)         0           batch_normalization_6[0][0]      
                                                                 dropout_5[0][0]                  
__________________________________________________________________________________________________
dropout_6 (Dropout)             (None, 1568)         0           concatenate_6[0][0]              
__________________________________________________________________________________________________
dense_7 (Dense)                 (None, 128)          200832      dropout_6[0][0]                  
__________________________________________________________________________________________________
batch_normalization_7 (BatchNor (None, 128)          512         dense_7[0][0]                    
__________________________________________________________________________________________________
concatenate_7 (Concatenate)     (None, 1696)         0           batch_normalization_7[0][0]      
                                                                 dropout_6[0][0]                  
__________________________________________________________________________________________________
dropout_7 (Dropout)             (None, 1696)         0           concatenate_7[0][0]              
__________________________________________________________________________________________________
dense_8 (Dense)                 (None, 128)          217216      dropout_7[0][0]                  
__________________________________________________________________________________________________
batch_normalization_8 (BatchNor (None, 128)          512         dense_8[0][0]                    
__________________________________________________________________________________________________
concatenate_8 (Concatenate)     (None, 1824)         0           batch_normalization_8[0][0]      
                                                                 dropout_7[0][0]                  
__________________________________________________________________________________________________
dropout_8 (Dropout)             (None, 1824)         0           concatenate_8[0][0]              
__________________________________________________________________________________________________
dense_9 (Dense)                 (None, 128)          233600      dropout_8[0][0]                  
__________________________________________________________________________________________________
batch_normalization_9 (BatchNor (None, 128)          512         dense_9[0][0]                    
__________________________________________________________________________________________________
concatenate_9 (Concatenate)     (None, 1952)         0           batch_normalization_9[0][0]      
                                                                 dropout_8[0][0]                  
__________________________________________________________________________________________________
dropout_9 (Dropout)             (None, 1952)         0           concatenate_9[0][0]              
__________________________________________________________________________________________________
dense_10 (Dense)                (None, 128)          249984      dropout_9[0][0]                  
__________________________________________________________________________________________________
batch_normalization_10 (BatchNo (None, 128)          512         dense_10[0][0]                   
__________________________________________________________________________________________________
concatenate_10 (Concatenate)    (None, 2080)         0           batch_normalization_10[0][0]     
                                                                 dropout_9[0][0]                  
__________________________________________________________________________________________________
dropout_10 (Dropout)            (None, 2080)         0           concatenate_10[0][0]             
__________________________________________________________________________________________________
dense_11 (Dense)                (None, 128)          266368      dropout_10[0][0]                 
__________________________________________________________________________________________________
batch_normalization_11 (BatchNo (None, 128)          512         dense_11[0][0]                   
__________________________________________________________________________________________________
concatenate_11 (Concatenate)    (None, 2208)         0           batch_normalization_11[0][0]     
                                                                 dropout_10[0][0]                 
__________________________________________________________________________________________________
dropout_11 (Dropout)            (None, 2208)         0           concatenate_11[0][0]             
__________________________________________________________________________________________________
dense_12 (Dense)                (None, 128)          282752      dropout_11[0][0]                 
__________________________________________________________________________________________________
batch_normalization_12 (BatchNo (None, 128)          512         dense_12[0][0]                   
__________________________________________________________________________________________________
concatenate_12 (Concatenate)    (None, 2336)         0           batch_normalization_12[0][0]     
                                                                 dropout_11[0][0]                 
__________________________________________________________________________________________________
dropout_12 (Dropout)            (None, 2336)         0           concatenate_12[0][0]             
__________________________________________________________________________________________________
dense_13 (Dense)                (None, 128)          299136      dropout_12[0][0]                 
__________________________________________________________________________________________________
batch_normalization_13 (BatchNo (None, 128)          512         dense_13[0][0]                   
__________________________________________________________________________________________________
concatenate_13 (Concatenate)    (None, 2464)         0           batch_normalization_13[0][0]     
                                                                 dropout_12[0][0]                 
__________________________________________________________________________________________________
dropout_13 (Dropout)            (None, 2464)         0           concatenate_13[0][0]             
__________________________________________________________________________________________________
dense_14 (Dense)                (None, 128)          315520      dropout_13[0][0]                 
__________________________________________________________________________________________________
batch_normalization_14 (BatchNo (None, 128)          512         dense_14[0][0]                   
__________________________________________________________________________________________________
concatenate_14 (Concatenate)    (None, 2592)         0           batch_normalization_14[0][0]     
                                                                 dropout_13[0][0]            2023-10-12 14:45:56.279142: I tensorflow/core/platform/cpu_feature_guard.cc:141] Your CPU supports instructions that this TensorFlow binary was not compiled to use: SSE4.1 SSE4.2 AVX AVX2 AVX512F FMA
2023-10-12 14:45:56.413186: I tensorflow/core/common_runtime/process_util.cc:69] Creating new thread pool with default inter op setting: 2. Tune using inter_op_parallelism_threads for best performance.
     
__________________________________________________________________________________________________
dropout_14 (Dropout)            (None, 2592)         0           concatenate_14[0][0]             
__________________________________________________________________________________________________
dense_15 (Dense)                (None, 128)          331904      dropout_14[0][0]                 
__________________________________________________________________________________________________
batch_normalization_15 (BatchNo (None, 128)          512         dense_15[0][0]                   
__________________________________________________________________________________________________
concatenate_15 (Concatenate)    (None, 2720)         0           batch_normalization_15[0][0]     
                                                                 dropout_14[0][0]                 
__________________________________________________________________________________________________
dropout_15 (Dropout)            (None, 2720)         0           concatenate_15[0][0]             
__________________________________________________________________________________________________
dense_16 (Dense)                (None, 128)          348288      dropout_15[0][0]                 
__________________________________________________________________________________________________
batch_normalization_16 (BatchNo (None, 128)          512         dense_16[0][0]                   
__________________________________________________________________________________________________
concatenate_16 (Concatenate)    (None, 2848)         0           batch_normalization_16[0][0]     
                                                                 dropout_15[0][0]                 
__________________________________________________________________________________________________
dropout_16 (Dropout)            (None, 2848)         0           concatenate_16[0][0]             
__________________________________________________________________________________________________
dense_17 (Dense)                (None, 800)          2279200     dropout_16[0][0]                 
__________________________________________________________________________________________________
batch_normalization_17 (BatchNo (None, 800)          3200        dense_17[0][0]                   
__________________________________________________________________________________________________
dropout_17 (Dropout)            (None, 800)          0           batch_normalization_17[0][0]     
__________________________________________________________________________________________________
dense_18 (Dense)                (None, 1)            801         dropout_17[0][0]                 
==================================================================================================
Total params: 5,897,921
Trainable params: 5,892,225
Non-trainable params: 5,696
__________________________________________________________________________________________________
[… ('complex_new_antibody_12917_4.pdb', 0.99246126)
('complex_new_antibody_12947_3.pdb', 0.9922414)
…
